Train details Multiclass VGG16-model cycler

Model: "model"
_________________________________________________________________
 Layer (type)                Output Shape              Param #   
=================================================================
 input_2 (InputLayer)        [(None, 224, 224, 3)]     0         
                                                                 
 vgg16 (Functional)          (None, 7, 7, 512)         14714688  
                                                                 
 flatten (Flatten)           (None, 25088)             0         
                                                                 
 dense (Dense)               (None, 4096)              102764544 
                                                                 
 dropout (Dropout)           (None, 4096)              0         
                                                                 
 dense_1 (Dense)             (None, 2048)              8390656   
                                                                 
 dropout_1 (Dropout)         (None, 2048)              0         
                                                                 
 dense_2 (Dense)             (None, 4)                 8196      
                                                                 
=================================================================
Total params: 125,878,084
Trainable params: 111,163,396
Non-trainable params: 14,714,688
_________________________________________________________________
Epoch 1/50
62/62 - 85s - loss: 5.8279 - categorical_accuracy: 0.4554 - precision: 0.4565 - recall: 0.4525 - val_loss: 0.2453 - val_categorical_accuracy: 0.9165 - val_precision: 0.9243 - val_recall: 0.9122 - 85s/epoch - 1s/step
…
